…
    FLIP: true
    MAX_SIZE: 4000
    MIN_SIZES:
    - 400
    - 500
    - 600
    - 700
    - 800
    - 900
    - 1000
    - 1100
    - 1200
  DETECTIONS_PER_IMAGE: 100
  EVAL_PERIOD: 5000
  EXPECTED_RESULTS: []
  KEYPOINT_OKS_SIGMAS: []
  PRECISE_BN:
    ENABLED: false
    NUM_ITER: 200
VERSION: 2.0
VIS_PERIOD: 0

[08/30 23:00:05] detectron2 INFO: Full config saved to ./output/config.yaml
[08/30 23:00:05] d2.utils.env INFO: Using a generated random seed 9105334
[08/30 23:00:26] d2.engine.defaults INFO: Model:
MGMMaskFormer(
  (rgb_backbone): D2SwinTransformer(
    (patch_embed): PatchEmbed(
      (proj): Conv2d(3, 96, kernel_size=(4, 4), stride=(4, 4))
      (norm): LayerNorm((96,), eps=1e-05, elementwise_affine=True)
    )
    (pos_drop): Dropout(p=0.0, inplace=False)
    (layers): ModuleList(
      (0): BasicLayer(
        (blocks): ModuleList(
          (0): SwinTransformerBlock(
            (norm1): LayerNorm((96,), eps=1e-05, elementwise_affine=True)
            (attn): WindowAttention(
              (qkv): Linear(in_features=96, out_features=288, bias=True)
              (attn_drop): Dropout(p=0.0, inplace=False)
              (proj): Linear(in_features=96, out_features=96, bias=True)
              (proj_drop): Dropout(p=0.0, inplace=False)
              (softmax): Softmax(dim=-1)
            )
            (drop_path): Identity()
            (norm2): LayerNorm((96,), eps=1e-05, elementwise_affine=True)
            (mlp): Mlp(
              (fc1): Linear(in_features=96, out_features=384, bias=True)
              (act): GELU(approximate='none')
              (fc2): Linear(in_features=384, out_features=96, bias=True)
              (drop): Dropout(p=0.0, inplace=False)
            )
          )
          (1): SwinTransformerBlock(
            (norm1): LayerNorm((96,), eps=1e-05, elementwise_affine=True)
            (attn): WindowAttention(
              (qkv): Linear(in_features=96, out_features=288, bias=True)
              (attn_drop): Dropout(p=0.0, inplace=False)
              (proj): Linear(in_features=96, out_features=96, bias=True)
              (proj_drop): Dropout(p=0.0, inplace=False)
              (softmax): Softmax(dim=-1)
            )
            (drop_path): DropPath(drop_prob=0.027)
            (norm2): LayerNorm((96,), eps=1e-05, elementwise_affine=True)
            (mlp): Mlp(
              (fc1): Linear(in_features=96, out_features=384, bias=True)
              (act): GELU(approximate='none')
              (fc2): Linear(in_features=384, out_features=96, bias=True)
              (drop): Dropout(p=0.0, inplace=False)
            )
          )
        )
        (downsample): PatchMerging(
          (reduction): Linear(in_features=384, out_features=192, bias=False)
          (norm): LayerNorm((384,), eps=1e-05, elementwise_affine=True)
        )
      )
      (1): BasicLayer(
        (blocks): ModuleList(
          (0): SwinTransformerBlock(
            (norm1): LayerNorm((192,), eps=1e-05, elementwise_affine=True)
            (attn): WindowAttention(
              (qkv): Linear(in_features=192, out_features=576, bias=True)
              (attn_drop): Dropout(p=0.0, inplace=False)
              (proj): Linear(in_features=192, out_features=192, bias=True)
              (proj_drop): Dropout(p=0.0, inplace=False)
              (softmax): Softmax(dim=-1)
            )
            (drop_path): DropPath(drop_prob=0.055)
            (norm2): LayerNorm((192,), eps=1e-05, elementwise_affine=True)
            (mlp): Mlp(
              (fc1): Linear(in_features=192, out_features=768, bias=True)
              (act): GELU(approximate='none')
              (fc2): Linear(in_features=768, out_features=192, bias=True)
              (drop): Dropout(p=0.0, inplace=False)
            )
          )
          (1): SwinTransformerBlock(
            (norm1): LayerNorm((192,), eps=1e-05, elementwise_affine=True)
            (attn): WindowAttention(
              (qkv): Linear(in_features=192, out_features=576, bias=True)
              (attn_drop): Dropout(p=0.0, inplace=False)
              (proj): Linear(in_features=192, out_features=192, bias=True)
              (proj_drop): Dropout(p=0.0, inplace=False)
              (softmax): Softmax(dim=-1)
            )
            (drop_path): DropPath(drop_prob=0.082)
            (norm2): LayerNorm((192,), eps=1e-05, elementwise_affine=True)
            (mlp): Mlp(
              (fc1): Linear(in_features=192, out_features=768, bias=True)
              (act): GELU(approximate='none')
              (fc2): Linear(in_features=768, out_features=192, bias=True)
              (drop): Dropout(p=0.0, inplace=False)
            )
          )
        )
        (downsample): PatchMerging(
          (reduction): Linear(in_features=768, out_features=384, bias=False)
          (norm): LayerNorm((768,), eps=1e-05, elementwise_affine=True)
        )
      )
      (2): BasicLayer(
        (blocks): ModuleList(
          (0): SwinTransformerBlock(
            (norm1): LayerNorm((384,), eps=1e-05, elementwise_affine=True)
            (attn): WindowAttention(
              (qkv): Linear(in_features=384, out_features=1152, bias=True)
              (attn_drop): Dropout(p=0.0, inplace=False)
              (proj): Linear(in_features=384, out_features=384, bias=True)
              (proj_drop): Dropout(p=0.0, inplace=False)
              (softmax): Softmax(dim=-1)
            )
            (drop_path): DropPath(drop_prob=0.109)
            (norm2): LayerNorm((384,), eps=1e-05, elementwise_affine=True)
            (mlp): Mlp(
              (fc1): Linear(in_features=384, out_features=1536, bias=True)
              (act): GELU(approximate='none')
              (fc2): Linear(in_features=1536, out_features=384, bias=True)
              (drop): Dropout(p=0.0, inplace=False)
            )
          )
          (1): SwinTransformerBlock(
            (norm1): LayerNorm((384,), eps=1e-05, elementwise_affine=True)
            (attn): WindowAttention(
              (qkv): Linear(in_features=384, out_features=1152, bias=True)
              (attn_drop): Dropout(p=0.0, inplace=False)
              (proj): Linear(in_features=384, out_features=384, bias=True)
              (proj_drop): Dropout(p=0.0, inplace=False)
              (softmax): Softmax(dim=-1)
            )
            (drop_path): DropPath(drop_prob=0.136)
            (norm2): LayerNorm((384,), eps=1e-05, elementwise_affine=True)
            (mlp): Mlp(
              (fc1): Linear(in_features=384, out_features=1536, bias=True)
              (act): GELU(approximate='none')
              (fc2): Linear(in_features=1536, out_features=384, bias=True)
              (drop): Dropout(p=0.0, inplace=False)
            )
          )
          (2): SwinTransformerBlock(
            (norm1): LayerNorm((384,), eps=1e-05, elementwise_affine=True)
            (attn): WindowAttention(
              (qkv): Linear(in_features=384, out_features=1152, bias=True)
              (attn_drop): Dropout(p=0.0, inplace=False)
              (proj): Linear(in_features=384, out_features=384, bias=True)
              (proj_drop): Dropout(p=0.0, inplace=False)
              (softmax): Softmax(dim=-1)
            )
            (drop_path): DropPath(drop_prob=0.164)
            (norm2): LayerNorm((384,), eps=1e-05, elementwise_affine=True)
            (mlp): Mlp(
              (fc1): Linear(in_features=384, out_features=1536, bias=True)
              (act): GELU(approximate='none')
              (fc2): Linear(in_features=1536, out_features=384, bias=True)
              (drop): Dropout(p=0.0, inplace=False)
            )
          )
          (3): SwinTransformerBlock(
            (norm1): LayerNorm((384,), eps=1e-05, elementwise_affine=True)
            (attn): WindowAttention(
              (qkv): Linear(in_features=384, out_features=1152, bias=True)
              (attn_drop): Dropout(p=0.0, inplace=False)
              (proj): Linear(in_features=384, out_features=384, bias=True)
              (proj_drop): Dropout(p=0.0, inplace=False)
              (softmax): Softmax(dim=-1)
            )
            (drop_path): DropPath(drop_prob=0.191)
            (norm2): LayerNorm((384,), eps=1e-05, elementwise_affine=True)
            (mlp): Mlp(
              (fc1): Linear(in_features=384, out_features=1536, bias=True)
              (act): GELU(approximate='none')
              (fc2): Linear(in_features=1536, out_features=384, bias=True)
              (drop): Dropout(p=0.0, inplace=False)
            )
          )
          (4): SwinTransformerBlock(
            (norm1): LayerNorm((384,), eps=1e-05, elementwise_affine=True)
            (attn): WindowAttention(
              (qkv): Linear(in_features=384, out_features=1152, bias=True)
              (attn_drop): Dropout(p=0.0, inplace=False)
              (proj): Linear(in_features=384, out_features=384, bias=True)
              (proj_drop): Dropout(p=0.0, inplace=False)
              (softmax): Softmax(dim=-1)
            )
            (drop_path): DropPath(drop_prob=0.218)
            (norm2): LayerNorm((384,), eps=1e-05, elementwise_affine=True)
            (mlp): Mlp(
              (fc1): Linear(in_features=384, out_features=1536, bias=True)
              (act): GELU(approximate='none')
              (fc2): Linear(in_features=1536, out_features=384, bias=True)
              (drop): Dropout(p=0.0, inplace=False)
            )
          )
          (5): SwinTransformerBlock(
            (norm1): LayerNorm((384,), eps=1e-05, elementwise_affine=True)
            (attn): WindowAttention(
              (qkv): Linear(in_features=384, out_features=1152, bias=True)
              (attn_drop): Dropout(p=0.0, inplace=False)
              (proj): Linear(in_features=384, out_features=384, bias=True)
              (proj_drop): Dropout(p=0.0, inplace=False)
              (softmax): Softmax(dim=-1)
            )
            (drop_path): DropPath(drop_prob=0.245)
            (norm2): LayerNorm((384,), eps=1e-05, elementwise_affine=True)
            (mlp): Mlp(
              (fc1): Linear(in_features=384, out_features=1536, bias=True)
              (act): GELU(approximate='none')
              (fc2): Linear(in_features=1536, out_features=384, bias=True)
              (drop): Dropout(p=0.0, inplace=False)
            )
          )
        )
        (downsample): PatchMerging(
          (reduction): Linear(in_features=1536, out_features=768, bias=False)
          (norm): LayerNorm((1536,), eps=1e-05, elementwise_affine=True)
        )
      )
      (3): BasicLayer(
        (blocks): ModuleList(
          (0): SwinTransformerBlock(
            (norm1): LayerNorm((768,), eps=1e-05, elementwise_affine=True)
            (attn): WindowAttention(
              (qkv): Linear(in_features=768, out_features=2304, bias=True)
              (attn_drop): Dropout(p=0.0, inplace=False)
              (proj): Linear(in_features=768, out_features=768, bias=True)
              (proj_drop): Dropout(p=0.0, inplace=False)
              (softmax): Softmax(dim=-1)
            )
            (drop_path): DropPath(drop_prob=0.273)
            (norm2): LayerNorm((768,), eps=1e-05, elementwise_affine=True)
            (mlp): Mlp(
              (fc1): Linear(in_features=768, out_features=3072, bias=True)
              (act): GELU(approximate='none')
              (fc2): Linear(in_features=3072, out_features=768, bias=True)
              (drop): Dropout(p=0.0, inplace=False)
            )
          )
          (1): SwinTransformerBlock(
            (norm1): LayerNorm((768,), eps=1e-05, elementwise_affine=True)
            (attn): WindowAttention(
              (qkv): Linear(in_features=768, out_features=2304, bias=True)
              (attn_drop): Dropout(p=0.0, inplace=False)
              (proj): Linear(in_features=768, out_features=768, bias=True)
              (proj_drop): Dropout(p=0.0, inplace=False)
              (softmax): Softmax(dim=-1)
            )
            (drop_path): DropPath(drop_prob=0.300)
            (norm2): LayerNorm((768,), eps=1e-05, elementwise_affine=True)
            (mlp): Mlp(
              (fc1): Linear(in_features=768, out_features=3072, bias=True)
              (act): GELU(approximate='none')
              (fc2): Linear(in_features=3072, out_features=768, bias=True)
              (drop): Dropout(p=0.0, inplace=False)
            )
          )
        )
      )
    )
    (norm0): LayerNorm((96,), eps=1e-05, elementwise_affine=True)
    (norm1): LayerNorm((192,), eps=1e-05, elementwise_affine=True)
    (norm2): LayerNorm((384,), eps=1e-05, elementwise_affine=True)
    (norm3): LayerNorm((768,), eps=1e-05, elementwise_affine=True)
  )
  (depth_backbone): ConvNeXtDepthBackbone(
    (downsample_layers): ModuleList(
      (0): Sequential(
        (0): Conv2d(1, 96, kernel_size=(4, 4), stride=(4, 4))
        (1): LayerNorm()
      )
      (1): Sequential(
        (0): LayerNorm()
        (1): Conv2d(96, 192, kernel_size=(2, 2), stride=(2, 2))
      )
      (2): Sequential(
        (0): LayerNorm()
        (1): Conv2d(192, 384, kernel_size=(2, 2), stride=(2, 2))
      )
      (3): Sequential(
        (0): LayerNorm()
        (1): Conv2d(384, 768, kernel_size=(2, 2), stride=(2, 2))
      )
    )
    (stages): ModuleList(
      (0): Sequential(
        (0): Block(
          (dwconv): Conv2d(96, 96, kernel_size=(7, 7), stride=(1, 1), padding=(3, 3), groups=96)
          (norm): LayerNorm()
          (pwconv1): Linear(in_features=96, out_features=384, bias=True)
          (act): GELU(approximate='none')
          (pwconv2): Linear(in_features=384, out_features=96, bias=True)
          (drop_path): Identity()
        )
        (1): Block(
          (dwconv): Conv2d(96, 96, kernel_size=(7, 7), stride=(1, 1), padding=(3, 3), groups=96)
          (norm): LayerNorm()
          (pwconv1): Linear(in_features=96, out_features=384, bias=True)
          (act): GELU(approximate='none')
          (pwconv2): Linear(in_features=384, out_features=96, bias=True)
          (drop_path): Identity()
        )
        (2): Block(
          (dwconv): Conv2d(96, 96, kernel_size=(7, 7), stride=(1, 1), padding=(3, 3), groups=96)
          (norm): LayerNorm()
          (pwconv1): Linear(in_features=96, out_features=384, bias=True)
          (act): GELU(approximate='none')
          (pwconv2): Linear(in_features=384, out_features=96, bias=True)
          (drop_path): Identity()
        )
      )
      (1): Sequential(
        (0): Block(
          (dwconv): Conv2d(192, 192, kernel_size=(7, 7), stride=(1, 1), padding=(3, 3), groups=192)
          (norm): LayerNorm()
          (pwconv1): Linear(in_features=192, out_features=768, bias=True)
          (act): GELU(approximate='none')
          (pwconv2): Linear(in_features=768, out_features=192, bias=True)
          (drop_path): Identity()
        )
        (1): Block(
          (dwconv): Conv2d(192, 192, kernel_size=(7, 7), stride=(1, 1), padding=(3, 3), groups=192)
          (norm): LayerNorm()
          (pwconv1): Linear(in_features=192, out_features=768, bias=True)
          (act): GELU(approximate='none')
          (pwconv2): Linear(in_features=768, out_features=192, bias=True)
          (drop_path): Identity()
        )
        (2): Block(
          (dwconv): Conv2d(192, 192, kernel_size=(7, 7), stride=(1, 1), padding=(3, 3), groups=192)
          (norm): LayerNorm()
          (pwconv1): Linear(in_features=192, out_features=768, bias=True)
          (act): GELU(approximate='none')
          (pwconv2): Linear(in_features=768, out_features=192, bias=True)
          (drop_path): Identity()
        )
      )
      (2): Sequential(
        (0): Block(
          (dwconv): Conv2d(384, 384, kernel_size=(7, 7), stride=(1, 1), padding=(3, 3), groups=384)
          (norm): LayerNorm()
          (pwconv1): Linear(in_features=384, out_features=1536, bias=True)
          (act): GELU(approximate='none')
          (pwconv2): Linear(in_features=1536, out_features=384, bias=True)
          (drop_path): Identity()
        )
        (1): Block(
          (dwconv): Conv2d(384, 384, kernel_size=(7, 7), stride=(1, 1), padding=(3, 3), groups=384)
          (norm): LayerNorm()
          (pwconv1): Linear(in_features=384, out_features=1536, bias=True)
          (act): GELU(approximate='none')
          (pwconv2): Linear(in_features=1536, out_features=384, bias=True)
          (drop_path): Identity()
        )
        (2): Block(
          (dwconv): Conv2d(384, 384, kernel_size=(7, 7), stride=(1, 1), padding=(3, 3), groups=384)
          (norm): LayerNorm()
          (pwconv1): Linear(in_features=384, out_features=1536, bias=True)
          (act): GELU(approximate='none')
          (pwconv2): Linear(in_features=1536, out_features=384, bias=True)
          (drop_path): Identity()
        )
        (3): Block(
          (dwconv): Conv2d(384, 384, kernel_size=(7, 7), stride=(1, 1), padding=(3, 3), groups=384)
          (norm): LayerNorm()
          (pwconv1): Linear(in_features=384, out_features=1536, bias=True)
          (act): GELU(approximate='none')
          (pwconv2): Linear(in_features=1536, out_features=384, bias=True)
          (drop_path): Identity()
        )
        (4): Block(
          (dwconv): Conv2d(384, 384, kernel_size=(7, 7), stride=(1, 1), padding=(3, 3), groups=384)
          (norm): LayerNorm()
          (pwconv1): Linear(in_features=384, out_features=1536, bias=True)
          (act): GELU(approximate='none')
          (pwconv2): Linear(in_features=1536, out_features=384, bias=True)
          (drop_path): Identity()
        )
        (5): Block(
          (dwconv): Conv2d(384, 384, kernel_size=(7, 7), stride=(1, 1), padding=(3, 3), groups=384)
          (norm): LayerNorm()
          (pwconv1): Linear(in_features=384, out_features=1536, bias=True)
          (act): GELU(approximate='none')
          (pwconv2): Linear(in_features=1536, out_features=384, bias=True)
          (drop_path): Identity()
        )
        (6): Block(
          (dwconv): Conv2d(384, 384, kernel_size=(7, 7), stride=(1, 1), padding=(3, 3), groups=384)
          (norm): LayerNorm()
          (pwconv1): Linear(in_features=384, out_features=1536, bias=True)
          (act): GELU(approximate='none')
          (pwconv2): Linear(in_features=1536, out_features=384, bias=True)
          (drop_path): Identity()
        )
        (7): Block(
          (dwconv): Conv2d(384, 384, kernel_size=(7, 7), stride=(1, 1), padding=(3, 3), groups=384)
          (norm): LayerNorm()
          (pwconv1): Linear(in_features=384, out_features=1536, bias=True)
          (act): GELU(approximate='none')
          (pwconv2): Linear(in_features=1536, out_features=384, bias=True)
          (drop_path): Identity()
        )
        (8): Block(
          (dwconv): Conv2d(384, 384, kernel_size=(7, 7), stride=(1, 1), padding=(3, 3), groups=384)
          (norm): LayerNorm()
          (pwconv1): Linear(in_features=384, out_features=1536, bias=True)
          (act): GELU(approximate='none')
          (pwconv2): Linear(in_features=1536, out_features=384, bias=True)
          (drop_path): Identity()
        )
      )
      (3): Sequential(
        (0): Block(
          (dwconv): Conv2d(768, 768, kernel_size=(7, 7), stride=(1, 1), padding=(3, 3), groups=768)
          (norm): LayerNorm()
          (pwconv1): Linear(in_features=768, out_features=3072, bias=True)
          (act): GELU(approximate='none')
          (pwconv2): Linear(in_features=3072, out_features=768, bias=True)
          (drop_path): Identity()
        )
        (1): Block(
          (dwconv): Conv2d(768, 768, kernel_size=(7, 7), stride=(1, 1), padding=(3, 3), groups=768)
          (norm): LayerNorm()
          (pwconv1): Linear(in_features=768, out_features=3072, bias=True)
          (act): GELU(approximate='none')
          (pwconv2): Linear(in_features=3072, out_features=768, bias=True)
          (drop_path): Identity()
        )
        (2): Block(
          (dwconv): Conv2d(768, 768, kernel_size=(7, 7), stride=(1, 1), padding=(3, 3), groups=768)
          (norm): LayerNorm()
          (pwconv1): Linear(in_features=768, out_features=3072, bias=True)
          (act): GELU(approximate='none')
          (pwconv2): Linear(in_features=3072, out_features=768, bias=True)
          (drop_path): Identity()
        )
      )
    )
  )
  (mgm): MultiModalGatedFusion(
    (prior_extractor): DepthPriorExtractor()
    (conf_pred): ConfidencePredictor(
      (proj_image): ModuleList(
        (0): Sequential(
          (0): Conv2d(96, 256, kernel_size=(1, 1), stride=(1, 1), bias=False)
          (1): GroupNorm(16, 256, eps=1e-05, affine=True)
          (2): GELU(approximate='none')
        )
        (1): Sequential(
          (0): Conv2d(192, 256, kernel_size=(1, 1), stride=(1, 1), bias=False)
          (1): GroupNorm(16, 256, eps=1e-05, affine=True)
          (2): GELU(approximate='none')
        )
        (2): Sequential(
          (0): Conv2d(384, 256, kernel_size=(1, 1), stride=(1, 1), bias=False)
          (1): GroupNorm(16, 256, eps=1e-05, affine=True)
          (2): GELU(approximate='none')
        )
        (3): Sequential(
          (0): Conv2d(768, 256, kernel_size=(1, 1), stride=(1, 1), bias=False)
          (1): GroupNorm(16, 256, eps=1e-05, affine=True)
          (2): GELU(approximate='none')
        )
      )
      (proj_depth): ModuleList(
        (0): Sequential(
          (0): Conv2d(96, 256, kernel_size=(1, 1), stride=(1, 1), bias=False)
          (1): GroupNorm(16, 256, eps=1e-05, affine=True)
          (2): GELU(approximate='none')
        )
        (1): Sequential(
          (0): Conv2d(192, 256, kernel_size=(1, 1), stride=(1, 1), bias=False)
          (1): GroupNorm(16, 256, eps=1e-05, affine=True)
          (2): GELU(approximate='none')
        )
        (2): Sequential(
          (0): Conv2d(384, 256, kernel_size=(1, 1), stride=(1, 1), bias=False)
          (1): GroupNorm(16, 256, eps=1e-05, affine=True)
          (2): GELU(approximate='none')
        )
        (3): Sequential(
          (0): Conv2d(768, 256, kernel_size=(1, 1), stride=(1, 1), bias=False)
          (1): GroupNorm(16, 256, eps=1e-05, affine=True)
          (2): GELU(approximate='none')
        )
      )
      (proj_prior): Sequential(
        (0): Conv2d(5, 256, kernel_size=(1, 1), stride=(1, 1), bias=False)
        (1): GroupNorm(16, 256, eps=1e-05, affine=True)
        (2): GELU(approximate='none')
      )
      (head): Sequential(
        (0): Conv2d(768, 256, kernel_size=(3, 3), stride=(1, 1), padding=(1, 1), bias=False)
        (1): GroupNorm(16, 256, eps=1e-05, affine=True)
        (2): GELU(approximate='none')
        (3): Conv2d(256, 128, kernel_size=(3, 3), stride=(1, 1), padding=(1, 1), bias=False)
        (4): GroupNorm(8, 128, eps=1e-05, affine=True)
        (5): GELU(approximate='none')
        (6): Conv2d(128, 1, kernel_size=(1, 1), stride=(1, 1))
      )
    )
    (align_image): ModuleList(
      (0): Sequential(
        (0): Conv2d(96, 96, kernel_size=(1, 1), stride=(1, 1), bias=False)
        (1): GroupNorm(8, 96, eps=1e-05, affine=True)
      )
      (1): Sequential(
        (0): Conv2d(192, 192, kernel_size=(1, 1), stride=(1, 1), bias=False)
        (1): GroupNorm(8, 192, eps=1e-05, affine=True)
      )
      (2): Sequential(
        (0): Conv2d(384, 384, kernel_size=(1, 1), stride=(1, 1), bias=False)
        (1): GroupNorm(8, 384, eps=1e-05, affine=True)
      )
      (3): Sequential(
        (0): Conv2d(768, 768, kernel_size=(1, 1), stride=(1, 1), bias=False)
        (1): GroupNorm(8, 768, eps=1e-05, affine=True)
      )
    )
    (align_depth): ModuleList(
      (0): Sequential(
        (0): Conv2d(96, 96, kernel_size=(1, 1), stride=(1, 1), bias=False)
        (1): GroupNorm(8, 96, eps=1e-05, affine=True)
      )
      (1): Sequential(
        (0): Conv2d(192, 192, kernel_size=(1, 1), stride=(1, 1), bias=False)
        (1): GroupNorm(8, 192, eps=1e-05, affine=True)
      )
      (2): Sequential(
        (0): Conv2d(384, 384, kernel_size=(1, 1), stride=(1, 1), bias=False)
        (1): GroupNorm(8, 384, eps=1e-05, affine=True)
      )
      (3): Sequential(
        (0): Conv2d(768, 768, kernel_size=(1, 1), stride=(1, 1), bias=False)
        (1): GroupNorm(8, 768, eps=1e-05, affine=True)
      )
    )
    (post_norm): ModuleList(
      (0): GroupNorm(8, 96, eps=1e-05, affine=True)
      (1): GroupNorm(8, 192, eps=1e-05, affine=True)
      (2): GroupNorm(8, 384, eps=1e-05, affine=True)
      (3): GroupNorm(8, 768, eps=1e-05, affine=True)
    )
  )
  (sem_seg_head): MGMHead(
    (pixel_decoder): MGMMSDeformAttnPixelDecoder(
      (input_proj): ModuleList(
        (0): Sequential(
          (0): Conv2d(768, 256, kernel_size=(1, 1), stride=(1, 1))
          (1): GroupNorm(32, 256, eps=1e-05, affine=True)
        )
        (1): Sequential(
          (0): Conv2d(384, 256, kernel_size=(1, 1), stride=(1, 1))
          (1): GroupNorm(32, 256, eps=1e-05, affine=True)
        )
        (2): Sequential(
          (0): Conv2d(192, 256, kernel_size=(1, 1), stride=(1, 1))
          (1): GroupNorm(32, 256, eps=1e-05, affine=True)
        )
      )
      (transformer): MSDeformAttnTransformerEncoderOnly(
        (encoder): MSDeformAttnTransformerEncoder(
          (layers): ModuleList(
            (0-5): 6 x MSDeformAttnTransformerEncoderLayer(
              (self_attn): MSDeformAttn(
                (sampling_offsets): Linear(in_features=256, out_features=192, bias=True)
                (attention_weights): Linear(in_features=256, out_features=96, bias=True)
                (value_proj): Linear(in_features=256, out_features=256, bias=True)
                (output_proj): Linear(in_features=256, out_features=256, bias=True)
              )
              (dropout1): Dropout(p=0.0, inplace=False)
              (norm1): LayerNorm((256,), eps=1e-05, elementwise_affine=True)
              (linear1): Linear(in_features=256, out_features=1024, bias=True)
              (dropout2): Dropout(p=0.0, inplace=False)
              (linear2): Linear(in_features=1024, out_features=256, bias=True)
              (dropout3): Dropout(p=0.0, inplace=False)
              (norm2): LayerNorm((256,), eps=1e-05, elementwise_affine=True)
            )
          )
        )
      )
      (pe_layer): Positional encoding PositionEmbeddingSine
          num_pos_feats: 128
          temperature: 10000
          normalize: True
          scale: 6.283185307179586
      (depth_pe): DepthPosEncoding(
        (mlp): Sequential(
          (0): Conv2d(1, 256, kernel_size=(1, 1), stride=(1, 1), bias=False)
          (1): GroupNorm(32, 256, eps=1e-05, affine=True)
          (2): GELU(approximate='none')
          (3): Conv2d(256, 256, kernel_size=(1, 1), stride=(1, 1), bias=False)
          (4): GroupNorm(32, 256, eps=1e-05, affine=True)
        )
      )
      (mask_features): Conv2d(256, 256, kernel_size=(1, 1), stride=(1, 1))
      (adapter_1): Conv2d(
        96, 256, kernel_size=(1, 1), stride=(1, 1), bias=False
        (norm): GroupNorm(32, 256, eps=1e-05, affine=True)
      )
      (layer_1): Conv2d(
        256, 256, kernel_size=(3, 3), stride=(1, 1), padding=(1, 1), bias=False
        (norm): GroupNorm(32, 256, eps=1e-05, affine=True)
      )
    )
    (predictor): MGMMultiScaleMaskedTransformerDecoder(
      (transformer_self_attention_layers): ModuleList(
        (0-8): 9 x SelfAttentionLayer(
          (self_attn): MultiheadAttention(
            (out_proj): NonDynamicallyQuantizableLinear(in_features=256, out_features=256, bias=True)
          )
          (norm): LayerNorm((256,), eps=1e-05, elementwise_affine=True)
          (dropout): Dropout(p=0.0, inplace=False)
        )
      )
      (transformer_cross_attention_layers): ModuleList(
        (0-8): 9 x MGMCrossAttentionLayer(
          (multihead_attn): MultiheadAttention(
            (out_proj): NonDynamicallyQuantizableLinear(in_features=256, out_features=256, bias=True)
          )
          (norm): LayerNorm((256,), eps=1e-05, elementwise_affine=True)
          (dropout): Dropout(p=0.0, inplace=False)
        )
      )
      (transformer_ffn_layers): ModuleList(
        (0-8): 9 x FFNLayer(
          (linear1): Linear(in_features=256, out_features=2048, bias=True)
          (dropout): Dropout(p=0.0, inplace=False)
          (linear2): Linear(in_features=2048, out_features=256, bias=True)
          (norm): LayerNorm((256,), eps=1e-05, elementwise_affine=True)
        )
      )
      (decoder_norm): LayerNorm((256,), eps=1e-05, elementwise_affine=True)
      (query_feat): Embedding(100, 256)
      (query_embed): Embedding(100, 256)
      (level_embed): Embedding(3, 256)
      (input_proj): ModuleList(
        (0-2): 3 x Sequential()
      )
      (class_embed): Linear(in_features=256, out_features=2, bias=True)
      (mask_embed): MLP(
        (layers): ModuleList(
          (0-2): 3 x Linear(in_features=256, out_features=256, bias=True)
        )
      )
    )
  )
  (criterion): Criterion SetCriterion
      matcher: Matcher HungarianMatcher
          cost_class: 2.0
          cost_mask: 5.0
          cost_dice: 5.0
      losses: ['labels', 'masks']
      weigh
…
